knapsack_dqn_model.pt (torch, 72950 bytes, 6 tensors)

net.0.weight f4 [128, 5]
0.20412092 0.18914516 -0.28170377 0.39037454 -0.5049218 0.018956989 -0.2769504 0.18999432
0.32645574 -0.39633304 0.3709483 0.108957194 0.37634236 -0.10391574 0.46653423 -0.14385594
0.45290405 0.11302349 -0.39325762 0.3560126 -0.20604768 -0.052446008 -0.18163952 0.29666853
-0.35301706 -0.20617008 -0.12628183 -0.26889724 0.042209417 -0.44170353 0.028477395 -0.15910628
0.6814443 0.05119208 -1.0070364 0.25976676 -0.08838437 0.37452543 -0.19950354 0.37018752
0.047298964 -0.184045 0.2577746 0.38151538 0.5671117 -0.19046481 0.32982224 0.29220706
0.3295941 0.013269908 -0.36244157 -0.21978001 -0.44598144 0.6005283 0.42807072 -0.004136062
-0.004214043 0.5482919 0.70333475 -0.6002733 -0.14295654 -0.17897381 0.3363407 -0.6181281
0.7003707 0.56664455 0.1139466 -0.55943453 -0.06971931 -1.9057862 0.28344658 0.183175
0.4808613 -0.5580829 -0.20190243 -0.39775988 -0.20751941 0.32537115 0.08344055 0.7785608
0.028270178 -0.10975529 0.5507615 -0.21074359 0.78605765 -0.10612407 0.2558267 -0.34747064
-0.22568624 0.13634491 -0.055820182 -0.06207012 0.409442 -0.04697323 -1.3640858 -0.28997934
0.49977592 -0.013679803 -0.27084574 -0.3697022 -0.2561059 0.111715615 -0.059029132 -0.3246261
0.010490149 -0.30548334 -0.3794145 -0.24626382 -0.39140674 -0.2847579 0.5269001 0.39010876
0.47253743 -0.5050942 0.124669254 0.46724296 -0.063070245 -0.8725021 -0.43414187 -0.23736507
-0.017804414 -0.006778457 0.13047153 -0.2262534 -1.1605849 0.1679505 -0.025541704 -0.3536792
0.7677445 -0.2905286 0.19033813 -0.050460726 -0.4237677 0.12259371 -0.53738153 0.13537882
-0.13884011 -0.9774643 -0.05555668 1.1826749 0.16159916 -0.22478 0.5043715 -0.7336834
0.46442616 0.088798806 0.05991703 0.57621783 0.69169873 -0.082927495 -0.05843892 -0.046948507
0.053245496 -1.1811548 0.91895103 -0.42260364 0.35068446 0.26842156 0.07513165 -0.014300182
0.3479769 0.17027059 0.094700545 -0.6152626 0.3815974 -0.16868965 -0.14387959 0.3799367
-0.17630717 -0.068163216 -0.2263522 -0.021357 0.24970675 -0.1142782 -0.25516886 -0.2183896
-0.11183997 0.397021 -0.1258005 -1.098337 0.06518072 0.13540222 0.24725951 -0.7359009
0.74930704 0.33574146 0.36614084 -0.16352834 -0.27417246 0.06886732 -0.12143153 0.021481235
0.52601135 0.56226516 0.47674277 -0.05956769 0.14385973 0.149335 0.18538807 0.5660789
-0.82397616 -0.15093489 0.40453047 0.055168323 0.17737207 -0.26962763 -0.27360755 -0.40059912
-0.14577481 0.15102589 0.5185214 0.44717792 -0.6253348 -0.17944877 -0.5527954 0.53958565
-0.08365028 -0.2741966 -0.20129295 -0.6763321 0.5312123 0.07955851 -2.0055761 0.055621177
-0.54010993 0.068026066 0.39524013 0.16361178 -0.562139 -0.49746817 -0.35958686 0.35350305
0.5074415 0.765121 0.48137987 0.11318624 -0.0043794215 -0.34010863 -0.38316017 -0.41830063
0.18307221 -0.21956755 -0.090002894 -0.25737375 -0.08149284 -0.3558039 -0.03507533 0.15303586
0.20473537 1.0912868 -0.028459035 -0.12678352 -0.2002085 0.0011769732 0.93970376 -0.4014707
00000000: 1305 513e 45af 413e 7a3b 90be 2cdf c73e
00000010: 8e42 01bf b04b 9b3c 71cc 8dbe df8d 423e
00000020: 3525 a73e 2aec cabe f0ec bd3e f324 df3d
00000030: f2af c03e c7d1 d4bd 93dd ee3e f94e 13be
00000040: 0ae3 e73e dc78 e73d 1059 c9be 4947 b63e
00000050: 2afe 52be a0d1 56bd b6ff 39be f0e4 973e
00000060: a7be b4be 401e 53be 0650 01be e6ac 89be
00000070: c8e3 2c3d f726 e2be 6d49 e93c c2ec 22be
00000080: 2273 2e3f c9ae 513d 92e6 80bf 2600 853e
00000090: dd02 b5bd ccc1 bf3e a84a 4cbe 3889 bd3e
000000a0: 8fbc 413d 4b76 3cbe 08fb 833e fc55 c33e
000000b0: 3b2e 113f 3509 43be 76de a83e 2a9c 953e
000000c0: 8fc0 a83e 076a 593c f191 b9be 030e 61be
000000d0: ae57 e4be 39bc 193f 162c db3e ce87 87bb
000000e0: f415 8abb dc5c 0c3f bf0d 343f 83ab 19bf
000000f0: 3363 12be e944 37be d934 ac3e a53d 1ebf
00000100: 7f4b 333f 9e0f 113f d65c e93d 1a37 0fbf
00000110: ffc8 8ebd cdf0 f3bf e91f 913e 3a92 3b3e
00000120: 7433 f63e 85de 0ebf 83bf 4ebe 2fa7 cbbe
00000130: f87f 54be 0c97 a63e e1e2 aa3d c34f 473f
00000140: dc96 e73c 62c7 e0bd b5fe 0c3f 2bcd 57be
00000150: 133b 493f 9457 d9bd b8fb 823e ace7 b1be
00000160: 4b1a 67be 009e 0b3e b4a3 64bd 3d3d 7ebd
00000170: 62a2 d13e 0067 40bd 5d9a aebf 2c78 94be
00000180: a1e2 ff3e 4121 60bc 4bac 8abe 9b49 bdbe
00000190: 5020 83be 28cb e43d 88c8 71bd 6435 a6be
000001a0: e0de 2b3c 5068 9cbe 9e42 c2be 952c 7cbe
000001b0: 7766 c8be cacb 91be ede2 063f 56bc c73e
000001c0: 6df0 f13e da4d 01bf 9852 ff3d 783a ef3e
000001d0: f92a 81bd 4c5c 5fbf d847 debe d40f 73be
000001e0: 90da 91bc d21d debb 549a 053e f9ae 67be
000001f0: 0c8e 94bf 37fb 2b3e d63c d1bc 7115 b5be
00000200: e78a 443f 2ac0 94be 00e8 423e e8af 4ebd
00000210: 14f8 d8be 6912 fb3d d691 09bf bfa0 0a3e
00000220: 1a2c 0ebe 1a3b 7abf 678f 63bd e461 973f
00000230: 407a 253e ba2c 66be 7e1e 013f add2 3bbf
00000240: 44c9 ed3e 26dc b53d 8f6b 753d 0383 133f
00000250: 2b13 313f e4d5 a9bd a65d 6fbd 144d 40bd
00000260: f317 5a3d 1530 97bf 6040 6b3f 815f d8be
00000270: ea8c b33e 8d6e 893e 9fde 993d 504b 6abc
00000280: 072a b23e 6a5b 2e3e 5cf2 c13d da81 1dbf
00000290: bc60 c33e fbbc 2cbe 2c55 13be 1087 c23e
000002a0: de89 34be 2899 8bbd dfc8 67be e0f4 aebc
000002b0: 20b3 7f3e b00a eabd 7ea5 82be 86a1 5fbe
000002c0: 5b0c e5bd 5646 cb3e d9d1 00be 4f96 8cbf
000002d0: 787d 853d e1a6 0a3e 9931 7d3e 0064 3cbf
000002e0: 96d2 3f3f 4ee6 ab3e d076 bb3e f973 27be
000002f0: 5560 8cbe 4f0a 8d3d 18b1 f8bd 6af9 af3c
00000300: aea8 063f 9cf0 0f3f a117 f43e 40fd 73bd
00000310: f74f 133e 46eb 183e 5fd6 3d3e 8cea 103f
00000320: 1af0 52bf ad8e 1abe 9e1e cf3e 2ef8 613d
00000330: 06a1 353e a20c 8abe 4a16 8cbe 541b cdbe
00000340: fe45 15be 88a6 1a3e d2bd 043f 81f4 e43e
00000350: f115 20bf 6bc1 37be 0084 0dbf 4922 0a3f
00000360: d750 abbd 7f63 8cbe bd1f 4ebe 1a24 2dbf
00000370: 87fd 073f 92ef a23d 5c5b 00c0 08d3 633d
00000380: a544 0abf 4051 8b3d ea5c ca3e d989 273e
00000390: 57e8 0fbf 26b4 febe c51b b8be 5afe b43e
000003a0: b0e7 013f f8de 433f 6c77 f63e 30ce e73d
000003b0: 4081 8fbb b822 aebe 922d c4be 802b d6be
000003c0: 4877 3b3e 51d6 60be 7053 b8bd 7ec6 83be
000003d0: b8e5 a6bd ee2b b6be 26ab 0fbd 6fb5 1c3e
000003e0: 26a6 513e 49af 8b3f ec22 e9bc 8ad3 01be
000003f0: 7503 4dbe ab44 9a3a 6d90 703f 918d cdbe

net.0.bias f4 [128]
-0.208303 -0.48874116 0.40720755 0.31152382 -0.4377979 -0.21360397 0.11732074 -0.2092679
-0.17728429 -0.22623901 0.36893994 -0.34737715 0.3612836 0.13809331 0.26308724 0.40573165
0.021105219 -0.25461808 0.083142556 0.6530617 -0.33182684 0.10150874 -0.19317424 0.48587716
0.24261554 0.43248314 0.24516678 0.1177923 0.32269213 -0.59423476 -0.29992166 0.20687954
0.51803803 0.32329473 -0.3252023 0.5889753 -0.25394198 -0.24908054 -0.7631334 -0.049599964
0.3001967 0.062361598 0.19449751 0.25455225 0.06945716 0.6340013 -0.54499 -0.14126384
-0.43181762 -0.22909844 0.008487372 0.57023585 0.11318927 0.78523415 -0.02986151 0.41754428
0.51600564 0.41719505 -0.25031605 0.840233 0.5592994 -0.110342905 -0.2767612 -0.41987443
0.12296777 -0.36248863 0.52604693 0.12185512 -0.38854015 0.17568755 -0.22690949 0.24948391
0.48120275 -0.44459516 0.6529132 0.38100496 -0.06286957 0.028384442 -0.30899665 -0.12960646
-0.112679616 0.2826676 0.15833694 0.55803823 -0.02242421 0.2105652 0.31219396 -0.37234592
-0.46890977 -0.11870346 0.41956905 -0.47291943 -0.38926983 0.33159614 0.28008673 0.6945201
-0.33761886 -0.19996162 0.23567899 0.3957384 0.26721027 0.19255325 0.33884397 0.52861476
-0.67439944 -0.058040865 0.21850698 -0.30600125 -0.27631846 0.30595618 0.17170954 0.18446448
0.014098616 -0.006171763 0.6371136 -0.2684266 -0.05953836 0.34006464 0.00062402233 0.55243784
-0.22343263 -0.34737435 -0.34780884 -0.2914307 -0.43883485 0.3766686 0.19244723 -0.4188606
00000000: 624d 55be 483c fabe 827d d03e 0d80 9f3e
00000010: 0c27 e0be 00bb 5abe db45 f03d 534a 56be
00000020: 038a 35be 33ab 67be b2e5 bc3e 6bdb b1be
00000030: 2afa b83e 5568 0d3e 5fb3 863e 0fbc cf3e
00000040: dae4 ac3c 4d5d 82be a546 aa3d 0d2f 273f
00000050: 35e5 a9be d0e3 cf3d 78cf 45be e4c4 f83e
00000060: 3570 783e 6e6e dd3e 000d 7b3e 173d f13d
00000070: e737 a53e c51f 18bf 558f 99be 3bd8 533e
00000080: 249e 043f e386 a53e ea80 a6be 16c7 163f
00000090: af04 82be f80e 7fbe b65c 43bf 5529 4bbd
000000a0: 62b3 993e e06e 7f3d 5b2a 473e ac54 823e
000000b0: 8e3f 8e3d e94d 223f 7784 0bbf 78a7 10be
000000c0: 3317 ddbe c898 6abe 9e0e 0b3c fafa 113f
000000d0: c7cf e73d 1b05 493f 20a0 f4bc 5dc8 d53e
000000e0: f218 043f 979a d53e 6d29 80be 8319 573f
000000f0: 3f2e 0f3f 76fb e1bd a5b3 8dbe c8f9 d6be
00000100: 87d6 fb3d 1c98 b9be 03ab 063f 2d8f f93d
00000110: bcee c6be 70e7 333e f65a 68be b678 7f3e
00000120: 3560 f63e faa1 e3be 5225 273f 1513 c33e
00000130: c3c1 80bd 7d86 e83c cf34 9ebe 8eb7 04be
00000140: 92c4 e6bd cfb9 903e 1423 223e 98db 0e3f
00000150: fab2 b7bc 679e 573e e3d7 9f3e 20a4 bebe
00000160: f114 f0be cd1a f3bd c1d1 d63e 7f22 f2be
00000170: 604e c7be f8c6 a93e 8767 8f3e 12cc 313f
00000180: 61dc acbe bdc2 4cbe d555 713e 399e ca3e
00000190: c9cf 883e ae2c 453e f57c ad3e 4c53 073f
000001a0: 71a5 2cbf 42bc 6dbd 4bc0 5f3e 32ac 9cbe
000001b0: 9d79 8dbe 4aa6 9c3e a0d4 2f3e 42e4 3c3e
000001c0: e2fd 663c 803c cabb e019 233f 366f 89be
000001d0: 7fde 73bd f41c ae3e 6e95 233a 916c 0d3f
000001e0: 86cb 64be 0ddb b1be 0014 b2be 6836 95be
000001f0: f6ae e0be b5da c03e e310 453e e674 d6be

net.2.weight f4 [128, 128]
-0.07866419 0.071712404 0.012857672 0.014178605 -0.05288258 -0.038749106 -0.03254611 -0.03675435
-0.08185263 -0.015949557 -0.013829125 -0.035221267 -0.0076860082 -0.03618329 0.0027351317 0.01188829
-0.06615475 -0.08764403 0.024925867 -0.0014473556 -0.04495325 0.08518002 -0.049117796 0.0803087
0.062287673 -0.09423925 0.035089444 -0.06398542 -0.0687662 -0.03703477 -0.076179266 0.064408064
-0.03852648 0.014606682 -0.07892301 0.030042559 -0.048980225 -0.08700517 0.012924403 0.018458283
0.054956988 -0.05398695 -0.027834581 -0.0038262256 0.023976333 0.012789879 0.025821103 -0.020042382
0.049105875 0.065167986 -0.02308894 0.04033399 0.024265308 0.05718128 -0.07071029 -0.06353361
-0.046728775 -0.016199922 0.0530506 -0.06968688 0.06429866 -0.049343713 0.031885132 -0.024704244
-0.09944137 -0.048635323 -0.08415164 0.021476341 -0.059268646 -0.030371564 -0.0024942406 -0.06980914
0.02124076 -0.08630445 -0.08473872 -0.10183021 -0.04750098 -0.016344689 -0.008129214 -0.016344287
0.01825119 0.099522814 0.010905558 -0.056099694 -0.06465655 0.05068718 -0.06623444 0.04497873
0.03645054 0.034093194 0.067204 0.06822485 0.018715337 -0.086691014 0.058016118 -0.061699096
-0.04175055 0.05130748 0.047107093 0.0055820583 -0.015927937 -0.05690103 -0.028068325 0.062057015
0.00011231962 -0.017560406 -0.03956042 -0.03082829 0.05268147 -0.01600275 0.035254918 -0.03754105
0.017489508 0.036484048 -0.0062938714 0.055540852 0.035441186 0.061469555 0.08713088 -0.04535202
-0.07483136 0.031715706 0.006193058 -0.023053922 -0.014801048 -0.01739958 0.041869126 0.027554289
-0.0313862 -0.036347494 -0.02188772 -0.034162357 0.07948082 0.04681448 0.079812534 0.00028228015
0.017825358 0.03064996 -0.08366426 0.00789278 -0.0059122965 -0.049555283 -0.0685847 0.07824794
0.071865566 0.040965237 0.08434456 -0.035868686 -0.015266672 0.033465475 -0.014604107 -0.01734487
-0.0730584 0.023746528 -0.05341548 0.0032143518 0.08617648 -0.027207285 -0.027859278 0.053325824
-0.032496262 -0.007590562 0.082531594 -0.0362369 -0.06323393 -0.049465984 -0.02450528 -0.04194016
-0.045867518 0.035703987 0.015020512 -0.028289713 -0.068669915 -0.027829941 -0.037303343 -0.028763242
-0.07973716 0.019041419 -0.064941004 -0.06883677 -0.07221621 0.036891855 -0.053212143 -0.036482364
0.069282375 0.04693105 0.050681107 -0.083925314 -0.06338327 -0.033367574 0.073017396 0.009042166
-0.066105396 0.00055347383 -0.06864865 -0.019365825 -0.024304591 0.0765144 0.027377114 -0.015412375
0.014931329 -0.02551467 0.03472781 0.034963235 0.023736343 -0.034451738 0.075408585 -0.012760624
-0.034411058 0.055358864 0.07204152 0.08796052 0.02618578 -0.030131046 0.044891737 0.07583318
-0.08669431 -0.010950163 -0.060277797 0.016472034 0.03655608 -0.018259965 -0.007394314 0.039784543
-0.014855407 -0.07422672 0.07072269 -0.044487137 -0.009710215 0.008337356 -0.0053118616 -0.08314568
0.040552564 -0.040148772 -0.045843463 0.021117344 -0.046126522 -0.040849525 -0.029782448 -0.03320552
-0.036914285 -0.02383709 0.022969991 -0.07152543 -0.053499725 0.0012897179 0.012292005 0.04881621
-0.06208786 0.028213292 0.050239034 0.04907853 -0.08232681 -0.033729363 -0.07597558 -0.055933155
00000000: b11a a1bd f4dd 923d fca8 523c 614d 683c
00000010: 679b 58bd 62b7 1ebd 124f 05bd bb8b 16bd
00000020: 5aa2 a7bd a5a8 82bc 8e93 62bc 2d44 10bd
00000030: e9da fbbb ee34 14bd e53f 333b 1ac7 423c
00000040: 247c 87bd b77e b3bd 5531 cc3c 32b5 bdba
00000050: e620 38bd dd72 ae3d be2f 49bd e378 a43d
00000060: 5c21 7f3d 8200 c1bd f3b9 0f3d ca0a 83bd
00000070: 4bd5 8cbd c5b1 17bd e003 9cbd 60e8 833d
00000080: f1cd 1dbd dd50 6f3c 63a2 a1bd d01b f63c
00000090: 7d9f 48bd c42f b2bd e0c0 533c d335 973c
000000a0: 941a 613d 6c21 5dbd 5905 e4bc 6ac1 7abb
000000b0: 046a c43c a48c 513c c786 d33c ec2f a4bc
000000c0: 3e23 493d cb76 853d 0425 bdbc 4135 253d
000000d0: 0ac8 c63c eb36 6a3d 8ed0 90bd e91d 82bd
000000e0: ac66 3fbd b3b5 84bc 964b 593d ffb7 8ebd
000000f0: 04af 833d a21c 4abd fc99 023d 8e60 cabc
00000100: eba7 cbbd d535 47bd b257 acbd 27ef af3c
00000110: aec3 72bd c9cd f8bc 6a76 23bb 18f8 8ebd
00000120: 1a01 ae3c 63c0 b0bd 7e8b adbd 5b8c d0bd
00000130: 6390 42bd 4ce5 85bc 6530 05bc 74e4 85bc
00000140: 8583 953c 9ed2 cb3d 3aad 323c cbc8 65bd
00000150: a76a 84bd 5c9d 4f3d eca5 87bd 9e3b 383d
00000160: 294d 153d 4ea5 0b3d 40a2 893d 78b9 8b3d
00000170: e850 993c 0f8b b1bd 4fa2 6d3d 31b8 7cbd
00000180: a002 2bbd cb27 523d 5ef3 403d b3e9 b63b
00000190: 4e7b 82bc 0e11 69bd 8bef e5bc 7f2f 7e3d
000001a0: 238d eb38 d7da 8fbc 1b0a 22bd 9c8b fcbc
000001b0: 86c8 573d 3318 83bc 7667 103d a5c4 19bd
000001c0: 2846 8f3c 4c70 153d d23c cebb ce7e 633d
000001d0: c72a 113d 80c7 7b3d ad71 b23d 0ac3 39bd
000001e0: 2f41 99bd 54e8 013d 23ef ca3b 94db bcbc
000001f0: 1880 72bc 9089 8ebc f67e 2b3d 88b9 e13c
00000200: d18e 00bd 1ce1 14bd e04d b3bc d4ed 0bbd
00000210: d7c6 a23d 8ac0 3f3d c174 a33d 00ff 9339
00000220: 7c06 923c a015 fb3c 2b58 abbd b850 013c
00000230: f0bb c1bb 7bfa 4abd 2376 8cbd 7540 a03d
00000240: 412e 933d 2acb 273d d7bc ac3d 0beb 12bd
00000250: 1021 7abc 1813 093d 1046 6fbc d416 8ebc
00000260: a49f 95bd 1488 c23c 31ca 5abd e0a7 523b
00000270: 4b7d b03d d0e1 debc 2439 e4bc 2e6c 5a3d
00000280: cd1a 05bd 40ba f8bb 5306 a93d 256d 14bd
00000290: ca80 81bd d89c 4abd 4cbf c8bc 72c9 2bbd
000002a0: 94df 3bbd 583e 123d 9818 763c d4bf e7bc
000002b0: d0a2 8cbd 9efb e3bc 64cb 18bd e4a0 ebbc
000002c0: 3c4d a3bd c0fc 9b3c caff 84bd 4bfa 8cbd
000002d0: 18e6 93bd ea1b 173d faf4 59bd 886e 15bd
000002e0: ebe3 8d3d c63a 403d fe96 4f3d 09e1 abbd
000002f0: 16cf 81bd 70ac 08bd 258a 953d 9825 143c
00000300: 4462 87bd 0017 113a aa97 8cbd 14a5 9ebc
00000310: 6c1a c7bc 95b3 9c3d f845 e03c 3084 7cbc
00000320: 88a2 743c 2404 d1bc c03e 0e3d 9c35 0f3d
00000330: b872 c23c 441d 0dbd d16f 9a3d f011 51bc
00000340: 9cf2 0cbd fabf 623d 818a 933d a524 b43d
00000350: 9083 d63c 62d5 f6bc 66e0 373d 6d4e 9b3d
00000360: c98c b1bd 5068 33bc dae5 76bd 5cf0 863c
00000370: d4bb 153d ec95 95bc 004c f2bb 1ef5 223d
00000380: 1864 73bc 2e04 98bd 0fd7 903d 2538 36bd
00000390: 9817 1fbc 6899 083c 200f aebb 4848 aabd
000003a0: 721a 263d 0a73 24bd 5bc6 3bbd 48fe ac3c
000003b0: 2aef 3cbd d551 27bd 52fa f3bc 8302 08bd
000003c0: 6f33 17bd 0046 c3bc 902b bc3c ed7b 92bd
000003d0: 8722 5bbd c00b a93a 6864 493c 82f3 473d
000003e0: d74f 7ebd 901f e73c 72c7 4d3d 9206 493d
000003f0: f59a a8bd cd27 0abd 1699 9bbd 2a1a 65bd

net.2.bias f4 [128]
-0.02681556 -0.057759516 0.04663718 0.03941404 -0.08384771 -0.07385157 0.30505666 -0.026367739
-0.068367995 0.019643307 0.011264289 -0.08012215 0.0113001615 -0.086788684 0.021537958 0.4418558
0.01845016 0.067952186 0.26299682 -0.046126448 0.20393264 0.3443443 -0.047628164 -0.077562906
0.16444273 0.012180853 0.02382345 -0.060221594 0.04056103 0.1925897 0.34896424 0.38124537
-0.07888938 0.47166663 0.1323531 0.036708042 -0.018232854 -0.05824847 0.1715688 0.2427398
0.0025510953 0.26432204 -0.08323623 0.26451886 -0.3056792 0.018144198 0.252906 -0.039737746
-0.11115044 0.104935214 0.048953865 0.19418043 -0.08583404 0.01456958 -0.013376476 -0.11106157
0.20919995 0.4087008 -0.029359534 -0.055830993 0.4375275 0.08273251 0.28827542 0.034178477
0.052242886 0.3716945 0.15986848 -0.008883683 0.10110128 -0.049393296 -0.09057533 -0.0447711
-0.074709676 -0.05001788 -0.09484616 -0.09588229 0.2445869 0.24265103 -0.065737255 0.18080011
-0.04720976 0.17096049 -0.0860791 0.02510626 0.27425143 0.44403574 0.09080272 -0.059563026
0.25382316 0.07426385 -0.106020354 0.12483607 0.013043936 -0.042015065 -0.06656269 0.061830036
-0.055002384 0.00575687 0.044048868 0.027004616 0.042570148 0.1340235 -0.0019294149 0.17161654
-0.0049938075 0.09842474 0.23337726 0.0133417435 0.09878355 0.24069242 0.02976785 0.068675034
0.31096175 0.01854897 0.03466876 -0.022670384 -0.08247585 -0.04660504 -0.11358212 0.30569595
0.024043825 -0.0418608 0.2597731 0.14391522 -0.041166198 0.23540154 0.03366469 0.42730284
00000000: 4eac dbbc 3e95 6cbd a106 3f3d 9e70 213d
00000010: 59b8 abbd 7e3f 97bd 6330 9c3e 2801 d8bc
00000020: 8504 8cbd 00eb a03c da8d 383c 1517 a4bd
00000030: 5024 393c 44be b1bd 5f70 b03c ec3a e23e
00000040: ca24 973c 842a 8b3d 85a7 863e 16ef 3cbd
00000050: b8d3 503e e54d b03e c015 43bd 4dd9 9ebd
00000060: ad63 283e 3392 473c 6529 c33c ebaa 76bd
00000070: 5323 263d 3c36 453e 71ab b23e 9832 c33e
00000080: c190 a1bd 4a7e f13e 9287 073e 2c5b 163d
00000090: 115d 95bc f395 6ebd bbaf 2f3e c890 783e
000000a0: 4730 273b 3855 873e c277 aabd 046f 873e
000000b0: fc81 9cbe 24a3 943c e57c 813e 0cc4 22bd
000000c0: d8a2 e3bd 46e8 d63d d983 483d 3cd7 463e
000000d0: c2c9 afbd 3fb5 6e3c 0229 5bbc 4074 e3bd
000000e0: 8338 563e 3b41 d13e 6883 f0bc 0aaf 64bd
000000f0: 9b03 e03e aa6f a93d d698 933e bbfe 0b3d
00000100: a3fc 553d be4e be3e 90b4 233e de8c 11bc
00000110: 300e cf3d a050 4abd 8f7f b9bd e761 37bd
00000120: 6301 99bd 8cdf 4cbd b43e c2bd ef5d c4bd
00000130: fd74 7a3e 8379 783e 41a1 86bd aa23 393e
00000140: 055f 41bd 4410 2f3e 3d4a b0bd a5ab cd3c
00000150: af6a 8c3e a758 e33e c7f6 b93d 5cf8 73bd
00000160: 1cf5 813e a517 983d 3321 d9bd 0eaa ff3d
00000170: 3cb6 553c fd17 2cbd 0552 88bd 7e41 7d3d
00000180: 2e4a 61bd 20a4 bc3b 966c 343d c938 dd3c
00000190: 095e 2e3d 753d 093e 6ce4 fcba 3fbc 2f3e
000001a0: 18a3 a3bb e992 c93d 73fa 6e3e 5497 5a3c
000001b0: 084f ca3d 1378 763e b5db f33c 7fa5 8c3d
000001c0: 6136 9f3e 02f4 973c d400 0e3d 3eb7 b9bc
000001d0: 19e9 a8bd ede4 3ebd be9d e8bd 2e84 9c3e
000001e0: 8ef7 c43c 3b76 2bbd fb00 853e 835e 133e
000001f0: e39d 28bd 1a0d 713e fce3 093d 70c7 da3e

net.4.weight f4 [2, 128]
0.052675854 0.07644721 0.23686981 -1.0497901 -0.046016805 0.077103816 0.4937859 0.89967054
-0.041502926 -0.07457784 0.09944835 -0.028947223 0.030213937 0.016601322 -0.03527102 0.4387406
0.08125869 -0.0129710995 0.70730716 0.035585634 0.29937682 0.6825977 0.03044686 0.07891164
0.2558811 0.08589831 0.0023289712 0.0016024468 -0.05542819 0.6339807 0.7824321 0.4037975
0.0016344005 0.45117787 0.079744846 -1.4626542 0.040903363 -0.06721643 -0.795412 0.62755066
-0.08250766 -1.5279882 -0.000713408 0.53629553 -2.5202327 -0.7375172 0.33988798 -0.02354034
0.041568946 -0.30995876 -0.06919471 0.37650827 -1.4861656 0.013767719 -0.011428729 0.0086831935
0.32193178 0.38197514 0.021267422 -0.0061571584 0.41129577 -0.3065355 -1.2518903 -0.046334885
-0.093743145 0.36013505 -0.28948343 0.016529039 0.2074392 0.012099796 -0.0098190345 0.043341234
0.020138038 -0.10756422 0.03798254 0.07871762 0.6672484 -0.21823533 0.019718047 0.49105117
-0.019046862 0.3678488 0.06862531 0.044419803 0.52824885 0.8107304 0.12565361 -0.014228638
0.030227711 -0.3225375 0.036637753 0.54689294 0.0669022 -0.08433663 -0.041376065 -0.037289847
-0.06910926 -0.055193763 -0.06311068 -0.06620251 0.022894764 -0.32155812 0.0033096417 0.14933601
0.005602247 -0.2674117 0.2407021 -0.089046955 -0.6005405 0.4731599 -0.070834436 -0.35388044
-0.88057345 -0.017199602 0.06428705 0.068840474 0.021244235 -0.015220627 0.059127834 0.37579945
0.08608959 -0.020739092 0.008268097 0.2472801 0.03227166 0.6372949 0.04191681 0.4496101
-0.02937278 0.007251732 -3.9636812 0.35093606 0.029682191 -0.046246875 0.55167234 0.445821
-0.025477298 0.079075344 -0.023824578 -0.043853246 -0.030343361 0.0075585307 -0.05521904 0.22526512
-0.07569364 -0.03255994 -0.07288674 -0.053388733 0.4762795 0.4434493 -0.014688577 -0.019239424
0.52976656 -0.05144217 -0.07155461 -0.039287124 -0.055309277 0.4603041 0.50914717 0.24070323
-0.054413773 0.24260335 0.62683827 -0.010600535 0.0029364421 -0.074950404 0.89053303 -0.04868955
0.009127514 -0.28440896 -0.0084643215 1.2192714 -2.3365772 -0.43575138 0.45423353 0.025781404
-0.023090694 -0.5820852 0.0317169 0.39837033 -0.89455605 -0.027497502 -0.0056469818 0.001813043
0.54052454 0.23511226 -0.023983374 -0.037463564 0.25544405 -0.52983135 -1.0282968 -0.03763266
-0.050922357 0.24160536 0.79080534 0.07416811 0.6342683 -0.061613094 -0.017486239 0.020096779
-0.011124462 -0.03476272 -0.005419785 -0.0474063 0.43637806 0.63186806 0.018873703 0.4669412
-0.031320132 0.58451134 -0.050680753 -0.050734248 -0.042209625 0.46386036 0.47656375 -0.014529501
0.6021494 -0.47301424 0.064210705 -0.07901421 -0.061350744 0.024522997 -0.024260927 -0.004390178
-0.02366709 0.086208336 -0.011584513 -0.072096325 -0.031173635 0.61597794 0.018578527 0.556675
-0.07320215 0.5692984 0.46313366 -0.022318112 1.2063397 0.55514956 0.07428954 0.60715973
-0.96852094 -0.059420567 0.06544449 -0.009928957 0.0757466 0.034322906 -0.038125344 0.23730224
-0.00096969504 -0.06407693 0.62900335 0.739731 0.04278343 0.51196295 0.010321043 0.27650774
00000000: a3c2 573d 5b90 9c3d 008e 723e 865f 86bf
00000010: 1e7c 3cbd 9be8 9d3d 81d1 fc3e cf50 663f
00000020: f9fe 29bd 44bc 98bd 94ab cb3d ba22 edbc
00000030: 3883 f73c 7fff 873c 5878 10bd 9ca2 e03e
00000040: f56a a63d bc84 54bc 1512 353f 3ec2 113d
00000050: eb47 993e b9be 2e3f b16b f93c 6d9c a13d
00000060: d902 833e 74eb af3d a7a1 183b 3109 d23a
00000070: ab08 63bd 8f4c 223f 784d 483f 8cbe ce3e
00000080: 6139 d63a c900 e73e 4451 a33d 4138 bbbf
00000090: 498a 273d c5a8 89bd 1fa0 4bbf 29a7 203f
000000a0: c7f9 a8bd 1e95 c3bf 0004 3bba aa4a 093f
000000b0: 7e4b 21c0 edcd 3cbf cc05 ae3e acd7 c0bc
000000c0: 3344 2a3d eab2 9ebe f5b5 8dbd b1c5 c03e
000000d0: ad3a bebf 0092 613c 903f 3bbc f443 0e3c
000000e0: 3ed4 a43e 3f92 c33e 0439 ae3c fdc1 c9bb
000000f0: 5c95 d23e 39f2 9cbe f13d a0bf a6c9 3dbd
00000100: 68fc bfbd 9f63 b83e 2c37 94be e867 873c
00000110: f16a 543e 393e 463c 04e0 20bc 9486 313d
00000120: 87f8 a43c a14a dcbd 9493 1b3d b436 a13d
00000130: cbd0 2a3f 1579 5fbe be87 a13c 0f6b fb3e
00000140: 2a08 9cbc ae56 bc3e 6d8b 8c3d 8af1 353d
00000150: 513b 073f 078c 4f3f 57ab 003e 3c1f 69bc
00000160: 1ba0 f73c a323 a5be 7811 163d 2d01 0c3f
00000170: 0504 893d afb8 acbd f379 29bd 3dbd 18bd
00000180: 2889 8dbd db12 62bd 2c40 81bd 2e95 87bd
00000190: cd8d bb3c 44a3 a4be 93e6 583b 8aeb 183e
000001a0: 0e93 b73b 30ea 88be 9c7a 763e 405e b6bd
000001b0: 06bd 19bf 0442 f23e a511 91bd d12f b5be
000001c0: 436d 61bf 2ee6 8cbc eea8 833d 3cfc 8c3d
000001d0: 6408 ae3c f05f 79bc 0730 723d c968 c03e
000001e0: bd4f b03d 07e5 a9bc ea76 073c ff36 7d3e
000001f0: 4a2f 043d c225 233f f6b0 2b3d 4c33 e63e
00000200: 2f9f f0bc f09f ed3b f4ac 7dc0 e4ad b33e
00000210: 1128 f33c 5d6d 3dbd 663a 0d3f a642 e43e
00000220: c4b5 d0bc 41f2 a13d c32b c3bc 769f 33bd
00000230: a492 f8bc 8dad f73b 5c2d 62bd e6ab 663e
00000240: 4405 9bbd 925d 05bd a545 95bd 25ae 5abd
00000250: e8da f33e c90b e33e 5ba8 70bc ff9b 9dbc
00000260: c89e 073f 06b5 52bd 398b 92bd 89eb 20bd
00000270: fb8b 62bd fbac eb3e 7857 023f e87a 763e
00000280: fae0 5ebd 036d 783e 7978 203f dead 2dbc
00000290: 5371 403b 997f 99bd f9f9 633f b26e 47bd
000002a0: 928b 153c 0d9e 91be f0ad 0abc 1611 9c3f
000002b0: 7b8a 15c0 ce1a dfbe 4c91 e83e 8633 d33c
000002c0: b228 bdbc 8903 15bf 95e9 013d 32f7 cb3e
000002d0: a001 65bf 7142 e1bc 510a b9bb a1a3 ed3a
000002e0: d15f 0a3f 45c1 703e c878 c4bc 6573 19bd
000002f0: 90c9 823e 07a3 07bf 3b9f 83bf b424 1abd
00000300: f693 50bd 6567 773e 3872 4a3f 73e5 973d
00000310: 685f 223f 035e 7cbd 4d3f 8fbc 00a2 a43c
00000320: 6043 36bc 5b63 0ebd 7498 b1bb 1c2d 42bd
00000330: f26c df3e 1bc2 213f 069d 9a3c eb12 ef3e
00000340: 8a49 00bd 89a2 153f 9f96 4fbd b7ce 4fbd
00000350: 00e4 2cbd 1b7f ed3e 2a00 f43e 250d 6ebc
00000360: 7726 1a3f ec2e f2be e780 833d 34d2 a1bd
00000370: eb4a 7bbd 74e4 c83c dabe c6bc 7bdb 8fbb
00000380: 7ce1 c1bc ff8d b03d f8cc 3dbc 3da7 93bd
00000390: da5f ffbc bbb0 1d3f ff31 983c 4182 0e3f
000003a0: 02eb 95bd 8abd 113f db1f ed3e 79d4 b6bc
000003b0: 5769 9a3f 481e 0e3f 1d25 983d d26e 1b3f
000003c0: fdf0 77bf fb62 73bd c307 863d 10ad 22bc
000003d0: 0921 9b3d 2d96 0c3d 5229 1cbd 5cff 723e
000003e0: 2233 7eba c43a 83bd 5d06 213f 035f 3d3f
000003f0: ae3d 2f3d 0110 033f 9819 293c 6c92 8d3e

net.4.bias f4 [2]
0.43859974 0.31128177
00000000: 2590 e03e 5360 9f3e
